=================================================================================================================================================
Layer (type:depth-idx)                        Input Shape               Output Shape              Param #                   Param %
=================================================================================================================================================
VNet                                          [4, 1, 128, 128, 64]      [4, 2, 128, 128, 64]      --                             --
├─ModuleList: 1-1                             --                        --                        --                             --
│    └─VNetDownBlock: 2-1                     [4, 1, 128, 128, 64]      [4, 16, 128, 128, 64]     --                             --
│    │    └─VNetNConvBlock: 3-1               [4, 1, 128, 128, 64]      [4, 16, 128, 128, 64]     --                             --
│    │    │    └─Sequential: 4-1              [4, 1, 128, 128, 64]      [4, 16, 128, 128, 64]     --                             --
│    │    │    │    └─Conv3d: 5-1             [4, 1, 128, 128, 64]      [4, 16, 128, 128, 64]     2,016                       0.00%
│    │    │    │    └─PReLU: 5-2              [4, 16, 128, 128, 64]     [4, 16, 128, 128, 64]     16                          0.00%
│    │    └─Sequential: 3-2                   [4, 16, 128, 128, 64]     [4, 32, 64, 64, 32]       --                             --
│    │    │    └─Conv3d: 4-2                  [4, 16, 128, 128, 64]     [4, 32, 64, 64, 32]       4,128                       0.01%
│    │    │    └─PReLU: 4-3                   [4, 32, 64, 64, 32]       [4, 32, 64, 64, 32]       32                          0.00%
│    └─VNetDownBlock: 2-2                     [4, 32, 64, 64, 32]       [4, 32, 64, 64, 32]       --                             --
│    │    └─VNetNConvBlock: 3-3               [4, 32, 64, 64, 32]       [4, 32, 64, 64, 32]       --                             --
│    │    │    └─Sequential: 4-4              [4, 32, 64, 64, 32]       [4, 32, 64, 64, 32]       --                             --
│    │    │    │    └─Conv3d: 5-3             [4, 32, 64, 64, 32]       [4, 32, 64, 64, 32]       128,032                     0.29%
│    │    │    │    └─PReLU: 5-4              [4, 32, 64, 64, 32]       [4, 32, 64, 64, 32]       32                          0.00%
│    │    │    │    └─Conv3d: 5-5             [4, 32, 64, 64, 32]       [4, 32, 64, 64, 32]       128,032                     0.29%
│    │    │    │    └─PReLU: 5-6              [4, 32, 64, 64, 32]       [4, 32, 64, 64, 32]       32                          0.00%
│    │    └─Sequential: 3-4                   [4, 32, 64, 64, 32]       [4, 64, 32, 32, 16]       --                             --
│    │    │    └─Conv3d: 4-5                  [4, 32, 64, 64, 32]       [4, 64, 32, 32, 16]       16,448                      0.04%
│    │    │    └─PReLU: 4-6                   [4, 64, 32, 32, 16]       [4, 64, 32, 32, 16]       64                          0.00%
│    └─VNetDownBlock: 2-3                     [4, 64, 32, 32, 16]       [4, 64, 32, 32, 16]       --                             --
│    │    └─VNetNConvBlock: 3-5               [4, 64, 32, 32, 16]       [4, 64, 32, 32, 16]       --                             --
│    │    │    └─Sequential: 4-7              [4, 64, 32, 32, 16]       [4, 64, 32, 32, 16]       --                             --
│    │    │    │    └─Conv3d: 5-7             [4, 64, 32, 32, 16]       [4, 64, 32, 32, 16]       512,064                     1.16%
│    │    │    │    └─PReLU: 5-8              [4, 64, 32, 32, 16]       [4, 64, 32, 32, 16]       64                          0.00%
│    │    │    │    └─Conv3d: 5-9             [4, 64, 32, 32, 16]       [4, 64, 32, 32, 16]       512,064                     1.16%
│    │    │    │    └─PReLU: 5-10             [4, 64, 32, 32, 16]       [4, 64, 32, 32, 16]       64                          0.00%
│    │    │    │    └─Conv3d: 5-11            [4, 64, 32, 32, 16]       [4, 64, 32, 32, 16]       512,064                     1.16%
│    │    │    │    └─PReLU: 5-12             [4, 64, 32, 32, 16]       [4, 64, 32, 32, 16]       64                          0.00%
│    │    └─Sequential: 3-6                   [4, 64, 32, 32, 16]       [4, 128, 16, 16, 8]       --                             --
│    │    │    └─Conv3d: 4-8                  [4, 64, 32, 32, 16]       [4, 128, 16, 16, 8]       65,664                      0.15%
│    │    │    └─PReLU: 4-9                   [4, 128, 16, 16, 8]       [4, 128, 16, 16, 8]       128                         0.00%
│    └─VNetDownBlock: 2-4                     [4, 128, 16, 16, 8]       [4, 128, 16, 16, 8]       --                             --
│    │    └─VNetNConvBlock: 3-7               [4, 128, 16, 16, 8]       [4, 128, 16, 16, 8]       --                             --
│    │    │    └─Sequential: 4-10             [4, 128, 16, 16, 8]       [4, 128, 16, 16, 8]       --                             --
│    │    │    │    └─Conv3d: 5-13            [4, 128, 16, 16, 8]       [4, 128, 16, 16, 8]       2,048,128                   4.65%
│    │    │    │    └─PReLU: 5-14             [4, 128, 16, 16, 8]       [4, 128, 16, 16, 8]       128                         0.00%
│    │    │    │    └─Conv3d: 5-15            [4, 128, 16, 16, 8]       [4, 128, 16, 16, 8]       2,048,128                   4.65%
│    │    │    │    └─PReLU: 5-16             [4, 128, 16, 16, 8]       [4, 128, 16, 16, 8]       128                         0.00%
│    │    │    │    └─Conv3d: 5-17            [4, 128, 16, 16, 8]       [4, 128, 16, 16, 8]       2,048,128                   4.65%
│    │    │    │    └─PReLU: 5-18             [4, 128, 16, 16, 8]       [4, 128, 16, 16, 8]       128                         0.00%
│    │    └─Sequential: 3-8                   [4, 128, 16, 16, 8]       [4, 256, 8, 8, 4]         --                             --
│    │    │    └─Conv3d: 4-11                 [4, 128, 16, 16, 8]       [4, 256, 8, 8, 4]         262,400                     0.60%
│    │    │    └─PReLU: 4-12                  [4, 256, 8, 8, 4]         [4, 256, 8, 8, 4]         256                         0.00%
├─ModuleList: 1-2                             --                        --                        --                             --
│    └─VNetUpBlock: 2-5                       [4, 256, 8, 8, 4]         [4, 128, 16, 16, 8]       --                             --
│    │    └─VNetNConvBlock: 3-9               [4, 256, 8, 8, 4]         [4, 256, 8, 8, 4]         --                             --
│    │    │    └─Sequential: 4-13             [4, 256, 8, 8, 4]         [4, 256, 8, 8, 4]         --                             --
│    │    │    │    └─Conv3d: 5-19            [4, 256, 8, 8, 4]         [4, 256, 8, 8, 4]         8,192,256                  18.61%
│    │    │    │    └─PReLU: 5-20             [4, 256, 8, 8, 4]         [4, 256, 8, 8, 4]         256                         0.00%
│    │    │    │    └─Conv3d: 5-21            [4, 256, 8, 8, 4]         [4, 256, 8, 8, 4]         8,192,256                  18.61%
│    │    │    │    └─PReLU: 5-22             [4, 256, 8, 8, 4]         [4, 256, 8, 8, 4]         256                         0.00%
│    │    │    │    └─Conv3d: 5-23            [4, 256, 8, 8, 4]         [4, 256, 8, 8, 4]         8,192,256                  18.61%
│    │    │    │    └─PReLU: 5-24             [4, 256, 8, 8, 4]         [4, 256, 8, 8, 4]         256                         0.00%
│    │    └─Sequential: 3-10                  [4, 256, 8, 8, 4]         [4, 128, 16, 16, 8]       --                             --
│    │    │    └─ConvTranspose3d: 4-14        [4, 256, 8, 8, 4]         [4, 128, 16, 16, 8]       262,272                     0.60%
│    │    │    └─PReLU: 4-15                  [4, 128, 16, 16, 8]       [4, 128, 16, 16, 8]       128                         0.00%
│    └─VNetUpBlock: 2-6                       [4, 128, 16, 16, 8]       [4, 64, 32, 32, 16]       --                             --
│    │    └─VNetNConvBlock: 3-11              [4, 256, 16, 16, 8]       [4, 128, 16, 16, 8]       --                             --
│    │    │    └─Sequential: 4-16             [4, 256, 16, 16, 8]       [4, 128, 16, 16, 8]       --                             --
│    │    │    │    └─Conv3d: 5-25            [4, 256, 16, 16, 8]       [4, 128, 16, 16, 8]       4,096,128                   9.30%
│    │    │    │    └─PReLU: 5-26             [4, 128, 16, 16, 8]       [4, 128, 16, 16, 8]       128                         0.00%
│    │    │    │    └─Conv3d: 5-27            [4, 128, 16, 16, 8]       [4, 128, 16, 16, 8]       2,048,128                   4.65%
│    │    │    │    └─PReLU: 5-28             [4, 128, 16, 16, 8]       [4, 128, 16, 16, 8]       128                         0.00%
│    │    │    │    └─Conv3d: 5-29            [4, 128, 16, 16, 8]       [4, 128, 16, 16, 8]       2,048,128                   4.65%
│    │    │    │    └─PReLU: 5-30             [4, 128, 16, 16, 8]       [4, 128, 16, 16, 8]       128                         0.00%
│    │    └─Sequential: 3-12                  [4, 128, 16, 16, 8]       [4, 64, 32, 32, 16]       --                             --
│    │    │    └─ConvTranspose3d: 4-17        [4, 128, 16, 16, 8]       [4, 64, 32, 32, 16]       65,600                      0.15%
│    │    │    └─PReLU: 4-18                  [4, 64, 32, 32, 16]       [4, 64, 32, 32, 16]       64                          0.00%
│    └─VNetUpBlock: 2-7                       [4, 64, 32, 32, 16]       [4, 32, 64, 64, 32]       --                             --
│    │    └─VNetNConvBlock: 3-13              [4, 128, 32, 32, 16]      [4, 64, 32, 32, 16]       --                             --
│    │    │    └─Sequential: 4-19             [4, 128, 32, 32, 16]      [4, 64, 32, 32, 16]       --                             --
│    │    │    │    └─Conv3d: 5-31            [4, 128, 32, 32, 16]      [4, 64, 32, 32, 16]       1,024,064                   2.33%
│    │    │    │    └─PReLU: 5-32             [4, 64, 32, 32, 16]       [4, 64, 32, 32, 16]       64                          0.00%
│    │    │    │    └─Conv3d: 5-33            [4, 64, 32, 32, 16]       [4, 64, 32, 32, 16]       512,064                     1.16%
│    │    │    │    └─PReLU: 5-34             [4, 64, 32, 32, 16]       [4, 64, 32, 32, 16]       64                          0.00%
│    │    │    │    └─Conv3d: 5-35            [4, 64, 32, 32, 16]       [4, 64, 32, 32, 16]       512,064                     1.16%
│    │    │    │    └─PReLU: 5-36             [4, 64, 32, 32, 16]       [4, 64, 32, 32, 16]       64                          0.00%
│    │    └─Sequential: 3-14                  [4, 64, 32, 32, 16]       [4, 32, 64, 64, 32]       --                             --
│    │    │    └─ConvTranspose3d: 4-20        [4, 64, 32, 32, 16]       [4, 32, 64, 64, 32]       16,416                      0.04%
│    │    │    └─PReLU: 4-21                  [4, 32, 64, 64, 32]       [4, 32, 64, 64, 32]       32                          0.00%
│    └─VNetUpBlock: 2-8                       [4, 32, 64, 64, 32]       [4, 16, 128, 128, 64]     --                             --
│    │    └─VNetNConvBlock: 3-15              [4, 64, 64, 64, 32]       [4, 32, 64, 64, 32]       --                             --
│    │    │    └─Sequential: 4-22             [4, 64, 64, 64, 32]       [4, 32, 64, 64, 32]       --                             --
│    │    │    │    └─Conv3d: 5-37            [4, 64, 64, 64, 32]       [4, 32, 64, 64, 32]       256,032                     0.58%
│    │    │    │    └─PReLU: 5-38             [4, 32, 64, 64, 32]       [4, 32, 64, 64, 32]       32                          0.00%
│    │    │    │    └─Conv3d: 5-39            [4, 32, 64, 64, 32]       [4, 32, 64, 64, 32]       128,032                     0.29%
│    │    │    │    └─PReLU: 5-40             [4, 32, 64, 64, 32]       [4, 32, 64, 64, 32]       32                          0.00%
│    │    │    │    └─Conv3d: 5-41            [4, 32, 64, 64, 32]       [4, 32, 64, 64, 32]       128,032                     0.29%
│    │    │    │    └─PReLU: 5-42             [4, 32, 64, 64, 32]       [4, 32, 64, 64, 32]       32                          0.00%
│    │    └─Sequential: 3-16                  [4, 32, 64, 64, 32]       [4, 16, 128, 128, 64]     --                             --
│    │    │    └─ConvTranspose3d: 4-23        [4, 32, 64, 64, 32]       [4, 16, 128, 128, 64]     4,112                       0.01%
│    │    │    └─PReLU: 4-24                  [4, 16, 128, 128, 64]     [4, 16, 128, 128, 64]     16                          0.00%
├─VNetOutputBlock: 1-3                        [4, 16, 128, 128, 64]     [4, 2, 128, 128, 64]      --                             --
│    └─VNetNConvBlock: 2-9                    [4, 32, 128, 128, 64]     [4, 16, 128, 128, 64]     --                             --
│    │    └─Sequential: 3-17                  [4, 32, 128, 128, 64]     [4, 16, 128, 128, 64]     --                             --
│    │    │    └─Conv3d: 4-25                 [4, 32, 128, 128, 64]     [4, 16, 128, 128, 64]     64,016                      0.15%
│    │    │    └─PReLU: 4-26                  [4, 16, 128, 128, 64]     [4, 16, 128, 128, 64]     16                          0.00%
│    └─Sequential: 2-10                       [4, 16, 128, 128, 64]     [4, 2, 128, 128, 64]      --                             --
│    │    └─Conv3d: 3-18                      [4, 16, 128, 128, 64]     [4, 2, 128, 128, 64]      34                          0.00%
│    │    └─PReLU: 3-19                       [4, 2, 128, 128, 64]      [4, 2, 128, 128, 64]      2                           0.00%
=================================================================================================================================================
Total params: 44,032,020
Trainable params: 44,032,020
Non-trainable params: 0
Total mult-adds (T): 1.09
=================================================================================================================================================
…
